weights/model_detect.ckpt (torch, 810108 bytes, 27 tensors)

module.backbone.layers.0.bn1.weight f4 [64]
00000000: 7f5d 913f 9267 5e3f bc9c 6d3f 8c9f 313f
00000010: 2aac 843f ef8d 673f 6119 3f3f 1a48 693f
00000020: 63e3 5c3f 8ad6 863f c283 803f c3b8 553f
00000030: 1054 853f 7bcc 603f 8e46 543f 11b6 913f
00000040: 1e35 5c3f 88cb 7f3f 806b 563f fc17 873f
00000050: 8009 843f d02c 4e3f 9c9c 7b3f 097b 533f
00000060: b73b 2e3f 6ffa 5a3f ed73 833f 44b0 423f
00000070: 3435 6d3f dcbb 4b3f 93ae 6c3f c4a0 8c3f
00000080: a8f8 6c3f a472 6a3f 3676 843f a0bc 963f
00000090: 99de 653f 5bc2 923f 825c 8c3f 01d1 933f
000000a0: c01e 763f 65e3 703f 15ca 7d3f a87e 893f
000000b0: 5d86 863f 084c 633f 7220 8c3f c088 763f
000000c0: f524 783f 1565 873f 05b5 8d3f 7367 893f
000000d0: e091 6e3f db77 8b3f 6330 6e3f 0e0d 443f
000000e0: 2584 7e3f 50a0 4b3f d791 453f 883b 6c3f
000000f0: 6951 883f 2fe7 7d3f e356 653f 7e8f 873f
1.1356658 0.86876786 0.9281728 0.69384074 1.036504 0.9045095 0.746481 0.91125643
0.86284465 1.0534222 1.0040209 0.8348505 1.0416279 0.8781201 0.8292016 1.1383687
0.8601855 0.9991994 0.8375778 1.0554194 1.0315399 0.8053713 0.9828584 0.8260961
0.6805987 0.8553838 1.0269753 0.7605021 0.92659307 0.79583526 0.9245388 1.0986562
0.9256692 0.9158118 1.0348575 1.1776314 0.8979278 1.1465563 1.0965731 1.1548158
0.9614067 0.94096977 0.9913648 1.0741777 1.0509754 0.8878789 1.0947402 0.96302414
0.9693139 1.0577723 1.1070868 1.0734695 0.9319134 1.0895952 0.9304258 0.7658242
0.99420387 0.7954149 0.7717566 0.9227834 1.0649844 0.99180883 0.89585704 1.0590665

module.backbone.layers.0.bn1.bias f4 [64]
00000000: 2ee9 09be f489 ddbe e4e8 36bf 6f34 9cbe
00000010: 86d1 f4be ea21 78be 23dc 2dbf 8e34 91be
00000020: 52e6 acbe cc9d 17be e209 37be bfd8 06be
00000030: ea26 acbe 3275 02bf a453 e5be eb9f 0abe
00000040: f369 d1be 9903 aebe 56fa ffbe 8efd 54be
00000050: 2caf 5fbe dbbc 8fbe e300 10be 212f 34be
00000060: fddb c6be 3e34 8dbe 6d45 94be c4db 0bbf
00000070: 0425 4bbe ea55 9ebe d1fc acbe 6338 bebe
00000080: 5b14 9bbe 2bba 62be 3691 89be 23a1 3abe
00000090: d395 bcbe 7682 aabe f4e7 01be 1230 c5be
000000a0: 5be2 75be 67f0 97be 907f 36be 8a7a 33be
000000b0: 090b 94be 41de 99be f622 c8be c7a9 81be
000000c0: 177d 88be 5684 a9bd 4783 8c3c db2f 99be
000000d0: 54f1 6abe b00f 4cbe b922 6dbe 1ac4 66be
000000e0: dfa4 aabe 7154 17bf 1a3d e0be d5d7 7abc
000000f0: 0207 7cbe 8ff5 fbbd f82c 62be c0b0 55be
-0.13467857 -0.43269312 -0.7144911 -0.30508754 -0.47816104 -0.24231687 -0.67914027 -0.2836041
-0.3376947 -0.14806288 -0.17874864 -0.1316862 -0.3362344 -0.50960076 -0.44790375 -0.13537566
-0.40901145 -0.3398712 -0.4999568 -0.20799848 -0.21844167 -0.28073773 -0.14062838 -0.17596103
-0.38839713 -0.2757892 -0.28959218 -0.5463221 -0.19838339 -0.30924922 -0.33786634 -0.37152395
-0.30288967 -0.2214133 -0.268686 -0.18225531 -0.36833057 -0.3330266 -0.1268614 -0.38513237
-0.24012129 -0.296756 -0.17822099 -0.17527214 -0.2891467 -0.3005238 -0.39089173 -0.25324842
-0.26657936 -0.08277194 0.017152442 -0.29919323 -0.22943622 -0.1992786 -0.23157777 -0.22535744
-0.33328912 -0.5911322 -0.43796617 -0.015310247 -0.24612048 -0.12302696 -0.22087467 -0.20868206

module.backbone.layers.0.bn1.running_mean f4 [64]
00000000: fb20 b0bf b555 0240 2ea3 4940 f5b0 933d
00000010: b2bf f9bf 8bfd 9ebf 0b29 3340 08b3 8a3e
00000020: edaf 1440 be85 043f 12f4 8bbf aa78 7ebf
00000030: 872e 93bf 3977 263f 7f35 c43e c603 8bbf
00000040: 4502 7540 44d7 94bf b80b 0440 6441 93bf
00000050: d697 6fbe ff78 c0bf 8f2c bb3f e988 e4be
00000060: 8584 57bf 2ea3 a1bf d83a c1bf b438 ac3e
00000070: a315 26be 33f9 9a3e c54b 70bf e535 58bf
00000080: dcad dfbc cd9d b43f d02a 943f 704c 46c0
00000090: 0830 16bf 3e84 83bf e764 0fbf 152d c6be
000000a0: 4a8f dbbf c052 0f3f 81cf 46bf 1d9f fbbe
000000b0: 698e 563d 9361 e4bf bfec 7e3d 2565 bc3f
000000c0: 89da 94bf fce3 64bf 1251 4cbf d94d c73e
000000d0: 62b9 42bf 3be1 87bf b539 b73e a9d4 0abf
000000e0: 51d5 e0bf c9a7 073f 4b16 443f 9c49 6abb
000000f0: 6e10 653f 222c 5abf 13c9 edbf 4d4a 0bc0
-1.3760065 2.0364811 3.1505847 0.07211486 -1.9511626 -1.2421125 2.79938 0.27089715
2.3232377 0.51766574 -1.0933859 -0.9940287 -1.1498574 0.6502567 0.38322064 -1.0860527
3.8282635 -1.1628194 2.0632153 -1.1504331 -0.23397765 -1.5036925 1.4622973 -0.44635704
-0.84186584 -1.2627923 -1.5096083 0.3363701 -0.16219191 0.3026825 -0.93865615 -0.84457237
-0.027304582 1.4110657 1.1575565 -3.0984154 -0.5866704 -1.0274732 -0.5601334 -0.3870627
-1.7153103 0.5598564 -0.77660376 -0.4914483 0.052381907 -1.7842277 0.062237497 1.4718367
-1.1629192 -0.89410377 -0.79811203 0.3892658 -0.7606412 -1.061561 0.35786214 -0.54230744
-1.7565099 0.52990395 0.76596516 -0.003574944 0.89478195 -0.8522359 -1.8576988 -2.17641

module.backbone.layers.0.bn1.running_var f4 [64]
00000000: 7ded 513f d50d a43f 27d1 2540 f817 4f3f
00000010: 4a68 4340 f5c8 c63f 8e1d 1540 66f5 883f
00000020: 653e 643f f7aa 213f beca 773f 3cf7 bd3f
00000030: 59e0 733f f456 553f 6496 8d3f d025 7e3f
00000040: 614b 3440 0524 0140 5061 a53f 8301 1240
00000050: 8dca 693f 99c5 0440 07cc 823f 8786 8c3f
00000060: 32db 3d3f 68e2 b03f 6f4e c13f 73df 993f
00000070: 1dcb 713f 7ce7 8a3f 1f80 543f 58d9 ed3f
00000080: 57ed 213f 26c5 933f 1fe7 703f 7627 0c40
00000090: 526d a73f 8cef e93f 474c 9a3f cb80 1b3f
000000a0: b902 e73f 3b86 803f 7506 be3f f752 723f
000000b0: 314f d93e 7fcc e93f cf68 253f 07ae b13f
000000c0: dc69 cc3f d5df b23f ebb3 b93f efb7 3f3f
000000d0: 87de 8c3f f559 f33f 8df7 483f 9612 8e3f
000000e0: 3fd2 2440 5af8 643f 57f0 f33f 6a48 833f
000000f0: ff85 5a3f f4c2 a83f d680 e63f 62d2 a93f
0.82003003 1.2816721 2.5908906 0.8089595 3.0532403 1.5530077 2.3299289 1.069989
0.89157706 0.63151497 0.96793735 1.4841075 0.952642 0.83335805 1.106152 0.9927645
2.8171008 2.0178235 1.2920322 2.2813423 0.9132469 2.0745604 1.0218514 1.0978554
0.7416259 1.3819094 1.5102061 1.2021316 0.9445055 1.0851893 0.83008 1.8581953
0.63252777 1.154454 0.9410266 2.1899085 1.3080237 1.8276229 1.2054528 0.607434
1.8047706 1.0040964 1.484572 0.94657844 0.4244323 1.8265532 0.6461305 1.3881234
1.5969806 1.3974558 1.4508032 0.74890035 1.100541 1.9011828 0.7850273 1.1099422
2.5753324 0.89441454 1.9057721 1.0256474 0.8536071 1.3184495 1.8008068 1.3267329

module.backbone.layers.0.conv2.weight f4 [64, 64, 3, 3]
00000000: c657 d43d 434e 023e 390e 8f3e a7c9 693e
00000010: ed27 183e 7f8b fc3d 67db d03d 86b9 fc3c
00000020: 784f 54bd 2e2b 5cbd 1f82 983d 9dc7 173e
00000030: f25e 6f3d f878 073e 7488 6c3e cde4 743d
00000040: d835 753d 1cc3 f93d 3f72 793d 4a7f 423d
00000050: 2b65 b73d e3b0 163d 3ef9 973d 5134 f53d
00000060: e55e dd3d 2794 223e f79d 543e 056e ea3c
00000070: 7cc0 023d 0b50 2a3d 383b 803d 171c 663d
00000080: 520a a33d aa0f d33d dc39 683d 0c0b f93d
00000090: 207c 673d afee e8bc 276b 13be 6ad2 65bc
000000a0: 06fa 37be 1dcd 09be b78c 4f3c 210a 02be
000000b0: 279d fcbd 5377 903d b11c 78bd c7b7 09be
000000c0: 915b 0e3e a79e 27bc b3f3 fc3c 699d 953e
000000d0: 9442 1c3e 7846 123e 4cb1 553d 21b8 8f3d
000000e0: 68d9 c43d 2bc1 d23d d429 323d a730 973d
000000f0: fd70 123e 3615 b03d 6ba8 9a3d 1bf8 f6be
00000100: d874 99be 9466 e2bd af7a 50be 661f 9cbc
00000110: 1941 9c3d 925b 49be 3435 f9bd e286 8dbd
00000120: 598b 5bbe f9d1 b7bd 5715 59bd 0aca 8a3d
00000130: af5d 1a3e 3a05 3a3e 4c70 2c3e 9ed1 383e
00000140: 0795 033e 20ed 82be c979 7abe 02b2 8ebe
00000150: 3870 a9bd 542f 41bd 7dc4 37be e8d8 8ebe
00000160: 2fbc 05be e7b5 dfbd ce94 5ebd 3d86 16bd
00000170: 4e7a 213d 941c 63bd 92e4 71bd d424 b6bb
00000180: d76d c2bd 5619 9abd eb18 c1bd b5cd ac3b
00000190: f332 103d 72b0 b13d db5a 53bd 08b2 8339
000001a0: 1184 3d3d 06d8 f8bd 13ef fdbd 2add cebd
000001b0: e46b ae3d 34c9 debc ca0d 9bbd d5d8 af3c
000001c0: e1d2 793c c5d1 1fbd f16d 93bd e97f 56bd
000001d0: ebfd c4bd 959c 46bc a1e4 ac3c 10ac 8c3d
000001e0: 1fa6 93bc ea75 703d 98b4 ba3d a58e aeb7
000001f0: 6a67 ac3c a93a 6b3c f695 35be 0e22 283e
00000200: d2eb 973e d7df 963c 1bdc d03d 6566 2a3e
00000210: aa32 0fbe f15f cebd ebee 6fbd 38df 99bd
00000220: 5b7b f83c 7254 1a3e 8adc 2f3c faf7 553d
00000230: 82ef ab3d 23aa 7fbd a199 b9bd 03f7 ddbd
00000240: 0fe9 65bd 0d84 08bd 30e3 f7bc 86db 003e
00000250: b6d9 703d 8ae2 363d adce 433e 7593 e03d
00000260: b699 bb3d c521 babd 32af 04be b8c2 cdbd
00000270: e5a5 a93d 6326 ca3c e875 193e 52e7 7e3e
00000280: 3f1c 293e 9e5c 4e3e 02a5 5fbd f3bc b1bd
00000290: 303d 98bd 4206 96bc 2650 853b 77d7 13bc
000002a0: a0e2 b73c 6558 f6bc 300e 83bd 4fd4 2b3e
000002b0: 81e8 e63d ca28 af3d a7b7 463d 621c 8bbd
000002c0: 4f04 0abd 0670 96bc 8cb9 96bd c488 90bd
000002d0: 5844 ce3d 527a 143e ab6b e23d 71d2 203d
000002e0: f33f 843d 806d 7d3d 95ab 98ba a7b4 dfbb
000002f0: 517f 0a3d 9d31 01be bc1d 41be f193 edbd
00000300: 0dbc 60be c65a 6dbe 5120 0cbe 1612 02be
00000310: 4e90 47be 9904 cabd 1e47 b3be 4772 76be
00000320: 86f2 97bd 2269 78be c0d4 4ebe 73a6 b2bd
00000330: 46b9 77be 8230 82be e6ad 31be cb31 b3bd
00000340: 2d38 5bbd 237a 8f3d 2ae8 81bd 4aac 0abd
00000350: c56e 633d 123f 1cbe 11cf d4bd 7483 96bc
00000360: 9dc0 06be 2847 cdbd 450d 92bc 8073 cebd
00000370: 4230 c3bd eca3 573b 84ed 15be dd62 cbbd
00000380: 224d 8bbd 0ea1 cdbd 19f6 7abe 2f31 9dbe
00000390: c3ef 75bc 5610 2dbd 9816 1cbe 434e c73c
000003a0: 5938 1e3d 3a5b d4bc e84e 353e 99a4 e5bc
000003b0: 73bf 05be 6079 043e cc18 fabc c517 94bd
000003c0: 639f 5d3e 1406 673d 0874 5cbb 9cf4 193e
000003d0: 7046 593e 4e79 723e 3e23 263e 3b89 353e
000003e0: 07d7 2a3e 2aeb 273e 2e3d 073e 7060 0b3e
000003f0: 499c 32be ebe3 8abd 8b8b 753d 1c7d 22bd
0.10368304 0.12725167 0.2794054 0.2283083 0.1485898 0.12331294 0.10198098 0.030850183
-0.0518336 -0.053752117 0.07446694 0.1482224 0.058440156 0.1322974 0.23098928 0.059788514
0.059865803 0.12195417 0.06089997 0.047484674 0.08954843 0.036789786 0.07420586 0.11972869
0.10809115 0.15876828 0.20763384 0.028616915 0.03192185 0.04158024 0.06261295 0.056179132
0.07960953 0.10305722 0.056695804 0.1216031 0.05651486 -0.028434126 -0.14396344 -0.014027217
-0.1796647 -0.13457151 0.012667826 -0.12699176 -0.12334662 0.07054009 -0.060574237 -0.13449012
0.13902117 -0.010230697 0.030877924 0.29221657 0.15259773 0.14284694 0.052171037 0.07017542
0.096117795 0.1029075 0.04349692 0.073823266 0.14300914 0.08597796 0.075516544 -0.48236164
-0.29971957 -0.110547215 -0.203593 -0.01905794 0.07629604 -0.19663838 -0.12168351 -0.069104925
-0.21439876 -0.08975596 -0.052998867 0.06776817 0.150748 0.18166056 0.16839713 0.18048713
0.12849818 -0.25571537 -0.2446052 -0.27870184 -0.08273357 -0.047164276 -0.17946048 -0.2789986
-0.13060068 -0.10923367 -0.05434113 -0.036749113 0.03942328 -0.055447176 -0.059055872 -0.0055585895
-0.094936065 -0.07524364 -0.09428581 0.0052735456 0.03520484 0.086762324 -0.05160032 0.0002511891
0.046268526 -0.12150578 -0.123991154 -0.101007774 0.08516672 -0.02719555 -0.075709894 0.021465698
0.015248031 -0.03901841 -0.07198704 -0.05236808 -0.096187435 -0.012122293 0.021105113 0.06868756
-0.018023549 0.0587062 0.09116477 -2.080884e-05 0.021045405 0.014357247 -0.17732987 0.16419241
0.29672104 0.018417282 0.10198232 0.16640623 -0.1398417 -0.10076893 -0.05857746 -0.07513279
0.030332258 0.15071276 0.010733733 0.052238442 0.08395292 -0.062418114 -0.090625055 -0.10838129
-0.056130465 -0.03332906 -0.030259699 0.12583742 0.058801375 0.04464964 0.1912181 0.10965625
0.091601774 -0.09088472 -0.12957457 -0.10046905 0.08283595 0.024676507 0.14986384 0.24892929
0.16514681 0.20152518 -0.054600723 -0.08678617 -0.074335456 -0.01831353 0.0040683923 -0.009023539
0.02244693 -0.030071447 -0.063991904 0.16780208 0.11274815 0.08552702 0.04851499 -0.06792523
-0.033695515 -0.018363964 -0.07359609 -0.07057336 0.10071629 0.14499786 0.11055692 0.039263193
0.0645751 0.061872005 -0.0011647815 -0.0068269554 0.033812825 -0.12616582 -0.18858999 -0.11600483
-0.21946736 -0.23179159 -0.13684203 -0.12702212 -0.19488642 -0.09864158 -0.35015196 -0.24067031
-0.074193045 -0.24258855 -0.20198345 -0.08723154 -0.2419177 -0.25427634 -0.17351493 -0.08749732
-0.05352037 0.070057176 -0.0634311 -0.033855714 0.05552556 -0.15258434 -0.10391057 -0.018373229
-0.13159414 -0.100233376 -0.017828593 -0.100806236 -0.09530689 0.0032904102 -0.14641386 -0.09930966
-0.06801821 -0.10040484 -0.24507941 -0.30701587 -0.015010777 -0.042251907 -0.15242994 0.02432931
0.038627956 -0.025922406 0.17705882 -0.028032588 -0.13061313 0.12936926 -0.030529402 -0.07231096
0.21642832 0.05640228 -0.0033638496 0.15034717 0.21218276 0.23679087 0.16224381 0.1772813
0.16683589 0.16398302 0.13206932 0.13611007 -0.1744243 -0.06781753 0.05994753 -0.039670095

module.backbone.layers.0.bn2.weight f4 [64]
00000000: 19e7 7b3f a5ee 873f 9777 8d3f 588f 613f
00000010: 78fc 5b3f 0a67 813f 9bac 773f 8cf9 4a3f
00000020: 77b2 803f df32 863f 58ba 593f abbc 743f
00000030: 790c 603f 272a 6e3f 08f6 3a3f 31de 803f
00000040: 6b51 893f 6e3e 813f e041 733f b0c4 963f
00000050: 04b2 2b3f a2c8 713f 908b 333f 9d62 753f
00000060: 9431 4e3f 09a1 6c3f 250d 4c3f ca61 663f
00000070: bc9b 653f 89b7 643f 17ab 3c3f 518e 823f
00000080: 9e47 5d3f ec57 313f 2ca7 9b3f 6f61 723f
00000090: 38cf 5b3f 1a15 2e3f aca3 7c3f a40e 703f
000000a0: d4e7 673f 68a8 6e3f a012 a73f 44f7 333f
000000b0: 080f ca3f ae28 3a3f 9d01 523f 0691 4b3f
000000c0: 557d 683f db95 813f 8022 d73f dcf9 6c3f
000000d0: 72d2 913f cb41 593f 66fc 443f 48e4 953f
000000e0: 26a6 7c3f 1009 713f fd90 653f d0c2 653f
000000f0: 2420 853f ce7f 653f 9398 6e3f f2f0 7a3f
0.983995 1.0619704 1.1052121 0.8810935 0.8593211 1.010957 0.9674775 0.7928703
1.0054463 1.0484275 0.85049963 0.95600384 0.8751903 0.9303307 0.73031664 1.0067807
1.0727972 1.0097177 0.9502239 1.1778774 0.67068505 0.94446766 0.7013483 0.95853597
0.805444 0.9243322 0.79707557 0.89992964 0.89690757 0.8934255 0.7369856 1.0199682
0.86437404 0.69274783 1.2160392 0.9467992 0.85863066 0.6800095 0.98687243 0.9377234
0.90588117 0.9322572 1.3052559 0.7029917 1.5785837 0.7271832 0.8203371 0.79518163
0.9081624 1.0123857 1.6807404 0.92568755 1.1392348 0.8486602 0.7694763 1.1710291
0.9869102 0.94154453 0.8967436 0.89750385 1.0400434 0.8964814 0.9320156 0.98023903

module.backbone.layers.0.bn2.bias f4 [64]
00000000: c274 d5be 4288 c2be 642b 92be 67bd b3be
00000010: f47e c2be 82a4 a3be 919d c1be 739f e6be
00000020: 6191 64be 81c3 cfbe c771 d4be afbc 9cbe
00000030: 6b5a ccbe 51d0 a2be ca96 85be 954b fdbe
00000040: dc30 e3be c9c3 36be 8f75 b2be c397 d6bd
00000050: d411 aabe b121 94be 083e 11bf 715c 48be
00000060: 7e43 0cbf 82ed 9dbe dd7f 27bf 0b94 c8be
00000070: 6dea d6be 8ad9 b6be e333 01bf 4414 b7be
00000080: d208 b3be e702 dfbe 7a33 42be 6f1b bebe
00000090: af96 3cbe 3099 32bf 137d e6be b2e5 c1be
000000a0: ac65 c1be af9f a4be 6dbd 74be 68d2 2abf
000000b0: d97d 96bd b574 f1be 0ea7 7abe 0486 28bf
000000c0: 88ee 4ebe 5ef6 50be f313 2fbe 1a0d c7be
000000d0: f6fa 343e ae32 0abf eadf 0ebf 491c 1bbe
000000e0: 872e afbe a4ce c4be ddda 92be f821 42be
000000f0: 026a 94be ce6f d1be 458d 51be a6a5 07be
-0.41690642 -0.3799458 -0.2854873 -0.3510544 -0.37987483 -0.31961447 -0.37815526 -0.45043525
-0.22321083 -0.40578845 -0.41493055 -0.30612704 -0.39912733 -0.31799558 -0.26091605 -0.49471727
-0.44373214 -0.17848124 -0.34855315 -0.10478165 -0.33216727 -0.28931955 -0.5673528 -0.19566514
-0.54790485 -0.30845267 -0.6542948 -0.39175448 -0.41975728 -0.35712844 -0.504698 -0.3575765
-0.34967667 -0.43556902 -0.18964949 -0.37130305 -0.18416856 -0.69764996 -0.450173 -0.37870556
-0.37772882 -0.3215308 -0.23900385 -0.66727304 -0.07348222 -0.47159353 -0.24477789 -0.6582949
-0.2020818 -0.20406482 -0.17097454 -0.38877183 0.17673859 -0.5398358 -0.55810416 -0.15147509
-0.34215185 -0.38438904 -0.28682604 -0.1895827 -0.28987128 -0.40905613 -0.20464046 -0.13246784

module.backbone.layers.0.bn2.running_mean f4 [64]
00000000: eda8 893f d840 b4bd d3fe 69bf 9768 aebe
00000010: 665d 1bc0 8bb5 ea3f 6b4c 0cc0 e723 48c0
00000020: 612d a7bf 4c2c 09bf da01 b8bf ad26 7540
00000030: bc2e 5740 a32a b23f e3c5 75c0 bbf1 45be
00000040: f0ce 2b40 c54a 05bf 0cdf a8bf 3a04 da3d
00000050: 5701 66c0 8c84 06bf 9f13 afbf 2c94 8cc0
00000060: 2ab0 d9be 5420 84c0 6a65 4a3f 39c3 62bf
00000070: e446 af3f 35f1 4bc0 7124 27c0 2355 5d40
00000080: 4156 b7c0 25bb 8ec0 975f 8cc0 081d 0ec0
00000090: 1e91 0fc1 259e ae3d 2f9f 2cbc bae6 debf
000000a0: 4129 5d40 e38a dfc0 3b30 16bf e588 6140
000000b0: e2b2 27bf 063e aac0 22b6 963f c806 c5bf
000000c0: 0de5 a9c0 5ec6 01c0 18e6 57bf 401c 96c0
000000d0: d96e ecbc 6739 953f 2cea 333f e967 533f
000000e0: 9ed1 0ac1 c913 2e3f 89ce 59c0 5daf 7ac0
000000f0: 300b aac0 1d10 95c0 9e06 d1be 0b98 ea3f
1.0754677 -0.088014305 -0.91404456 -0.3406417 -2.4275756 1.8336653 -2.1921642 -3.1271913
-1.3060724 -0.53583217 -1.4375565 3.8304856 3.3622274 1.3919262 -3.840203 -0.19330494
2.6845055 -0.52067214 -1.3193069 0.106453374 -3.5938318 -0.52546 -1.3677863 -4.3930874
-0.42517215 -4.1289463 0.79060996 -0.88579136 1.3693509 -3.186597 -2.6115992 3.4583213
-5.729279 -4.460345 -4.3866687 -2.220522 -8.972929 0.085262574 -0.010535999 -1.7414162
3.455643 -6.985704 -0.58667344 3.5239804 -0.6550733 -5.320071 1.1774333 -1.5392694
-5.3092103 -2.0277324 -0.8433547 -4.6909485 -0.02886145 1.1658143 0.7027919 0.8258043
-8.676176 0.6799894 -3.403231 -3.9169533 -5.3138657 -4.658217 -0.4082536 1.832765

module.backbone.layers.0.bn2.running_var f4 [64]
00000000: 641b 7041 1dbf 2541 a60e 3e41 ce65 4741
00000010: fa24 1d41 7384 bc40 0720 6741 0c35 ca41
00000020: 0ba1 bc41 e8f7 e540 f771 ee40 8c83 a441
00000030: c336 1441 837b 3142 9278 9941 0944 d240
00000040: fbd9 2941 b2a9 a741 618c de41 b577 0e41
00000050: 965c b841 73f9 9940 9e54 9c41 f72d f641
00000060: 3a5d 7c41 3a76 ca41 1e72 d340 b661 f941
00000070: 4d1a 9341 04fb dd41 e47d e440 f175 9841
00000080: 8b10 5741 5aa0 c441 7da1 4f41 1fe9 9c41
00000090: 0659 3d42 2f0b bb41 9102 ed40 4f20 0a41
000000a0: 5f39 f740 1983 8841 7bd8 8740 2212 8041
000000b0: 4d32 4840 5678 8f41 a549 5a41 ed2e f840
000000c0: 22ba c341 76aa 1f41 2a2e 5b40 88eb 7341
000000d0: 0e7f b540 76a3 2241 dbc4 9541 7d0f b540
000000e0: 883f b741 7300 c840 4d0f ac41 ffc1 a541
000000f0: e83c 9641 e806 7241 58e9 9941 ddfe 9f41
15.006687 10.3591585 11.878576 12.462355 9.8215275 5.891168 14.445319 25.275902
23.578634 7.186512 7.4514117 20.564232 9.26337 44.370617 19.183872 6.570805
10.615718 20.957859 27.818544 8.904225 23.045208 4.8117003 19.541317 30.772444
15.77276 25.307728 6.6076803 31.17271 18.387842 27.747566 7.1403675 19.057589
13.441539 24.578297 12.976926 19.613829 47.336937 23.38046 7.4065633 8.632888
7.7257533 17.064013 4.245176 16.008854 3.12807 17.933758 13.64298 7.7557282
24.465885 9.979116 3.4246926 15.245003 5.6717596 10.164907 18.72112 5.6581407
22.906021 6.250055 21.507471 20.719725 18.77974 15.126686 19.238937 19.999445

module.backbone.layers.0.conv3.weight f4 [64, 64, 3, 3]
00000000: 17ea 5e3d af14 ae3b f743 353d a490 0bbd
00000010: eff4 f83c fd2b ce3d 567c 48bd 6112 c93c
00000020: 08fe 213e 78cb 6a3e 5354 113e b700 123e
00000030: d2b1 80bd 1000 ecbc 2f29 323e 9617 47bd
00000040: 82b8 763d 3d21 753e c597 3b3e 2f2f 853d
00000050: cd1a 5bbd 2349 193e 673f 69bd 7d37 a6bd
00000060: 9f53 693e f80d 8e3d 9691 023e 126f 5dba
00000070: facc 15bb 6d7f 08bd a65a 51bd 475a cebd
00000080: 48c5 8bbd bed4 c7bd a56a a0bd 0f18 ed3c
00000090: 687f dc3d 770e a53d 2f14 3e3d b2ab 453d
000000a0: a9f3 863d 1a56 253e b4e5 573d f47a f93d
000000b0: c4c8 033e b6df 9d3d 22c7 b3bd b1af 83bd
000000c0: c9d6 483e 8030 93bc 149a 05be 9f8f 353e
000000d0: db4e 343e 7e79 bc3d d1b9 d9bd 843d 88be
000000e0: 81cb 79be 3212 afbd 3c47 7abe 3b51 8bbe
000000f0: de37 0d3e e219 a8bc d49f 36be dbc4 55be
00000100: eaf1 9ebe f92d 21be 7146 8d3d 19fa f7bd
00000110: dbbc 24be fcdf d03b 4e14 6ebe 1520 bebe
00000120: 2565 2abd 993f cbbd 2bd5 cdbc c4a7 09bd
00000130: 907a 31bd 31b0 37bd 4c45 253d 3c3b 843d
00000140: b897 543d 44aa d73d 5a3e fbbc 6788 ffbd
00000150: 23d1 d03d 651d babd 8024 f2bd 8b42 5bbc
00000160: 95e4 fdbd 48a1 32be 4440 c9bc b0ed 80bc
00000170: b706 4cbd 3455 b5bd 6ab5 823a b5d6 033e
00000180: 57ad 4dbe e3a4 83bd 8c2c be3d 98fd 14bd
00000190: e15e 99bd 2428 8c3b e926 0bbe 32a0 f3bd
000001a0: 00d6 123d 274a abbd 1ea0 69bc 50d9 bc3d
000001b0: fdf0 b0bc 29a0 0dbd edb3 ba3d d146 05be
000001c0: 80db 12be e16d 36bd 11c0 00be 855c 31be
000001d0: 4cef 4cbe 489c bfbc e6d0 61bd cd00 2dbd
000001e0: 0cb1 763d 95b1 03bd b3d3 9d37 3f94 bf3d
000001f0: 1ea8 1c3d de89 02bd ebcd da3c d075 9fbd
00000200: c036 49bd ab07 eb3d 3052 2bbd 3386 0ebb
00000210: 02fd 393e 6cac a13d 5c6a 2a3d 6361 e13d
00000220: 72fc 63bd 0779 37be 8475 943d 60e8 00bc
00000230: f7d5 e7bd c17d 21be 50c2 0cbe 57af a4bd
00000240: 1bbc 713c d2bd 9ebd 600e 84be b42f 2b3c
00000250: f8ab 82bd df18 43be f74c ca3c 3898 d3bc
00000260: 32c9 99bc 9273 d93e 7920 863e 92c9 1b3e
00000270: 1535 843e c231 e83d abc0 82bd 3f28 f63d
00000280: bfc0 85bd 4620 9bbd 0c98 cfbd 8f43 08be
00000290: 1cf2 cdbd d4f2 a5bd 5aad 46be 28c4 c0bd
000002a0: 0810 893c c691 103d ee45 173c 3620 a3bc
000002b0: e3be a5bd 71ec afbd 1945 12bd 7291 a53d
000002c0: dd09 ae3d 6372 1f3d e316 c13d 3f6c c83d
000002d0: 20b3 b9bd 34bc 053d abe6 823c a269 b6bd
000002e0: 510f 57bd 413d 0ebc f019 163d 8ba1 f3bc
000002f0: a34c 123c 5c9c 353e 4c80 833d 9b3d 4b3d
00000300: 5e17 003e a773 0e3e 4ca3 b03d 7cd4 673e
00000310: 3ff1 293e 32a6 023e 0375 b1bc b533 163d
00000320: f89f 1d3d 8360 1bbd 83aa a5bc 3ec8 a93d
00000330: d686 43bc fd72 8d3d 19ae b93d e772 e63c
00000340: 210c 2cbd c847 063d 00d6 b93c aac0 f3bc
00000350: 9755 903b dab0 293c e947 d33c baa8 d53d
00000360: 7cf3 713e a70a 603e cad2 103e f429 0f3e
00000370: d5c1 063e fc13 d83d a1dd 913d d51b e43d
00000380: 876c 913d e9bd 2a3e 983a 243e 1397 4c3e
00000390: 768d 9a3c 4b2d dbbc 46fb 723d a326 0ebc
000003a0: 4a6a 833d b152 85bb ee63 a9bd e18b f1bd
000003b0: e26d 2bbd 84a8 91bd 06b5 2a3c bf53 6f3d
000003c0: b1d7 d33d 140d ea3d 4dcc 723c 2d4e 3fbc
000003d0: ff29 25bc f128 163d a19d 6e3d 4bb7 4a3d
000003e0: e9c7 c23d 51a6 063e 7a00 213e c80a 153d
000003f0: 0a4b 17bd 15a9 e1bd ca7d 2e3c 310a 06bc
0.054422464 0.0053125243 0.04425427 -0.034073487 0.030390231 0.10066984 -0.0489467 0.024544897
0.15819561 0.2292918 0.14192323 0.14258085 -0.062839165 -0.028808624 0.17398523 -0.048606478
0.060234554 0.2393846 0.18319614 0.0650314 -0.053492356 0.14969306 -0.05694523 -0.08116052
0.22785805 0.06936258 0.12750849 -0.0008447032 -0.0022857771 -0.033324648 -0.05111184 -0.10075813
-0.06824738 -0.09757374 -0.07832841 0.028942136 0.10766488 0.080593996 0.046405967 0.048259445
0.06589443 0.16146126 0.052709296 0.121816546 0.12869555 0.07708685 -0.08778216 -0.06429995
0.19613184 -0.017967463 -0.13047057 0.17730568 0.17608206 0.0920286 -0.10631145 -0.26609433
-0.24394037 -0.08548392 -0.24441236 -0.2721041 0.13790843 -0.020520154 -0.17834407 -0.20875876
-0.3104394 -0.15740193 0.06898201 -0.12108249 -0.16087668 0.0063743573 -0.23249933 -0.37133852
-0.041600365 -0.0992424 -0.02512606 -0.03360726 -0.043329775 -0.044845764 0.04034929 0.064566106
0.051902503 0.105305225 -0.03066938 -0.124771886 0.1019614 -0.09087638 -0.11823368 -0.013382564
-0.12397114 -0.17444336 -0.024566777 -0.015738338 -0.04981109 -0.08854142 0.0009972278 0.12874873
-0.20085655 -0.06427934 0.092858404 -0.03637466 -0.074888 0.004277246 -0.13589062 -0.11895789
0.035848618 -0.08363753 -0.014259366 0.092211366 -0.021599287 -0.03457657 0.09116349 -0.13015296
-0.14341545 -0.044538382 -0.12573268 -0.1732045 -0.2001316 -0.02338995 -0.05513086 -0.04223709
0.06022744 -0.032151777 1.8814439e-05 0.093544476 0.038246267 -0.03186976 0.026709517 -0.07786143
-0.04912448 0.11476072 -0.041826427 -0.002174747 0.18162921 0.07894215 0.04160534 0.11004903
-0.055660672 -0.17917262 0.07248977 -0.0078679025 -0.113201074 -0.15770628 -0.13746 -0.08041256
0.0147543205 -0.07751049 -0.25792217 0.010448385 -0.06380457 -0.19052456 0.024694903 -0.02582942
-0.018772695 0.42470986 0.2619665 0.15213612 0.25821748 0.113376155 -0.06384405 0.12019395
-0.06530904 -0.07574515 -0.101364225 -0.13307022 -0.10055944 -0.081029564 -0.19402066 -0.09412414
0.016731277 0.03529527 0.009232981 -0.01991282 -0.080930494 -0.085900195 -0.035710428 0.08084382
0.08497975 0.038927447 0.094281934 0.09786271 -0.090673685 0.032650188 0.015979132 -0.089068666
-0.05250484 -0.008681596 0.03664583 -0.029740116 0.008929404 0.17735428 0.06420955 0.0496193
0.12508914 0.13911305 0.086248964 0.2263965 0.16595934 0.12758711 -0.02166224 0.036670405
0.038482636 -0.037933838 -0.020222908 0.08290146 -0.011934003 0.06906698 0.090664096 0.028130962
-0.042003755 0.0327833 0.022685051 -0.029754955 0.0044047344 0.010357106 0.025791125 0.10432573
0.23628038 0.21879064 0.1414291 0.13980848 0.13159879 0.10550687 0.071223505 0.11138121
0.07100778 0.16674007 0.16037977 0.19979505 0.018866282 -0.026754996 0.059321664 -0.008676204
0.064167574 -0.0040686955 -0.08271013 -0.11794258 -0.04185284 -0.0711222 0.010419136 0.058429476
0.10343874 0.11428276 0.014819217 -0.011676353 -0.010080813 0.03666014 0.058255795 0.049491208
0.09510786 0.13149382 0.15722838 0.036387235 -0.036936797 -0.11018578 0.010650108 -0.008181141

module.backbone.layers.0.bn3.weight f4 [64]
00000000: 0d7b 843f e00f 6b3f 5b1d 853f 3453 7e3f
00000010: c794 953f d96b 933f 881f 723f 46ea ca3f
00000020: 5399 983f 9f19 8b3f bf1b 8a3f 8ef7 af3f
00000030: 6233 583f ede7 c43f d7ec 963f bdec 853f
00000040: 7be2 8e3f f7ea 8f3f 91a8 4d3f 8d26 883f
00000050: 8eb0 903f bfd4 943f 48e3 a43f 62f4 913f
00000060: 10b6 8f3f 0f48 7b3f 07b9 a43f 14d7 bb3f
00000070: 47b9 6d3f 3071 683f 4e3e a53f 37cf 503f
00000080: bf5d 873f 62e0 723f 51be 533f e1ab b03f
00000090: 2e52 8d3f 5c87 683f 3b82 743f 59ee 4c3f
000000a0: 5c01 733f d2e0 753f 01a7 683f b2b8 883f
000000b0: 6723 8b3f 8570 563f 62d7 473f 0580 833f
000000c0: 4076 8c3f 0559 a43f 602f c13f d252 a83f
000000d0: 9466 a33f 36e2 b33f 1c11 693f 0375 ad3f
000000e0: 6cd2 613f 6039 a13f 9c63 a53f 051f 983f
000000f0: 7e40 843f da8e 9f3f bfb7 743f f1e5 9b3f
1.0350052 0.918211 1.0399584 0.9934571 1.1686028 1.1517287 0.9457936 1.5852745
1.1921791 1.0867194 1.0789717 1.3747423 0.84453404 1.5383278 1.1791028 1.0462872
1.1162866 1.124358 0.80335337 1.0636765 1.130388 1.1627425 1.2881861 1.1402705
1.1227436 0.9815683 1.2868966 1.4675012 0.92860836 0.9079771 1.2909639 0.81566185
1.0575484 0.9487363 0.82712275 1.3802453 1.1040704 0.9083154 0.95511216 0.8005119
0.9492395 0.96046174 0.9087983 1.0681365 1.0870179 0.8376544 0.78063023 1.0273443
1.0973587 1.2839667 1.5092583 1.3150275 1.2765679 1.4053409 0.9104173 1.3551334
0.88211703 1.2595634 1.2921023 1.1884466 1.0332181 1.246547 0.95592874 1.2179548

module.backbone.layers.0.bn3.bias f4 [64]
00000000: 8893 62be 4419 a83c e39c 5abe 9e0a c0bd
00000010: e45a 7bbe 50fb 97be bc24 1c3d 2b37 b7bc
00000020: b852 95be d4cf c43c a4e8 6abe 0402 cabd
00000030: 21f1 5dbe afff a6ba 04e2 01be 8445 82be
00000040: b0ca 0fbe 05f0 65be 4597 dfbd 2b89 de3d
00000050: 10fc 35bd 566f b1bd 56ea eabd 1a5e 0bbe
00000060: 1306 c5be 0609 4ebe 23a0 15be 74e8 a7be
00000070: c60b cdbe 2dbe 3abd 338d 3cbe 42d1 42be
00000080: 8919 dabd 0262 04be 30d4 27be bdea adbc
00000090: 8cb9 aebd 16a9 cbbd a357 81be 4f4e d9bd
000000a0: c3fa dbbd 2bea 8c3c 8410 8cbb d9b2 12be
000000b0: 67de 2dbe 7438 8e3d f235 013c 7c2e c8bd
000000c0: bc6f 2ebe 6400 05bc 329e 92be 90be c73d
000000d0: 8c53 dcbd 55cf acbe fd61 a3be c9ca 85bd
000000e0: 6e7c adbe ad13 8bbe 13a7 433d 259a 93be
000000f0: d1ba 2cbd 9de4 c5bb eafa 62be 8a50 9bbe
-0.22126591 0.02051986 -0.2134891 -0.09377025 -0.24546391 -0.29683924 0.03812097 -0.022365173
-0.29164672 0.024024881 -0.22940308 -0.09863666 -0.21674015 -0.0012740995 -0.12683874 -0.2544366
-0.14042163 -0.22454841 -0.10917524 0.108660065 -0.04442984 -0.08663814 -0.11470477 -0.13610116
-0.38481197 -0.2012063 -0.14611869 -0.32794535 -0.40048045 -0.045591522 -0.18413238 -0.19025138
-0.10649402 -0.12928012 -0.16389537 -0.021230096 -0.08531484 -0.0994436 -0.25262174 -0.10610639
-0.107411884 0.017201504 -0.0042744298 -0.14326037 -0.16979371 0.06944361 0.007886397 -0.09774491
-0.17034811 -0.008117769 -0.28636318 0.09753144 -0.10758123 -0.33751932 -0.31910697 -0.06532819
-0.33883995 -0.2716345 0.047766756 -0.2882854 -0.04217035 -0.0060392157 -0.22166029 -0.30334884

module.backbone.layers.0.bn3.running_mean f4 [64]
00000000: 23d4 7c40 3868 c4be 3ab7 783f a9aa bd3f
00000010: b5d7 8fc0 29ac 6ebf c1cb cac0 8fe7 bf3e
00000020: 0623 5fc0 4e3e 3cbd ffda ac3e 4d18 cabf
00000030: 206f 04c0 3371 07bf c447 10bf 066b 0cc0
00000040: 5790 e8bf da6f 49c0 2139 0d3f 3ce4 43c0
00000050: f9e3 13c0 e896 abbf c465 19c0 9c04 98be
00000060: 8c57 09c0 5b1a 2040 740c 3dbf 0990 893e
00000070: 3f66 44c0 4ac4 68c0 183d 47bf 03e5 25c0
00000080: 5eeb 67c0 6a1d 10c0 a51d c8c0 a65d f53e
00000090: 31c4 bcbf 4fde 97c0 2480 3cc0 2a91 433e
000000a0: 0570 06c1 fe61 e3c0 2225 08c1 c057 943f
000000b0: beb4 b23e d025 863f d211 b03e b66f 13c0
000000c0: 99f2 9e40 ed5c ecbf fe33 72bf bb8e 10bf
000000d0: 8a44 613f 2893 883f c2eb 67c0 d2af d1bf
000000e0: bf75 bbc0 e933 04c0 474c 03c0 4a39 62c0
000000f0: e8bd 7bc0 d0c5 89bf da8c 8bc0 b9f8 3ebf
3.9504478 -0.38360763 0.9715458 1.4817706 -4.4950814 -0.93231446 -6.3373723 0.37481353
-3.4865127 -0.045957856 0.3376083 -1.5788666 -2.0692825 -0.52907103 -0.56359506 -2.1940322
-1.8169049 -3.1474519 0.55165297 -3.0608053 -2.3107893 -1.3405428 -2.3968363 -0.29691017
-2.1459684 2.5016086 -0.73847127 0.26867703 -3.0687406 -3.6369805 -0.77827597 -2.5921028
-3.6237407 -2.2517953 -6.2536187 0.4792301 -1.4747373 -4.7458873 -2.945321 0.19098344
-8.4023485 -7.105712 -8.509066 1.1589279 0.3490352 1.048029 0.34388596 -2.3036933
4.967114 -1.8465859 -0.94610584 -0.5646779 0.8799521 1.0669909 -3.6237645 -1.6381781
-5.8581233 -2.0656683 -2.0515306 -3.5347466 -3.933466 -1.0763493 -4.360944 -0.7459827

module.backbone.layers.0.bn3.running_var f4 [64]
00000000: 5be7 1441 82d8 db41 c5b0 2f41 1266 2a41
00000010: 2a53 ad41 1b50 2941 d1b9 6342 6def 0541
00000020: 9e1f 7041 a225 8241 1627 f340 92bd d840
00000030: e4a7 2a41 62db 1941 606e 1041 7e39 d740
00000040: def1 2941 6826 5841 ade7 9341 0797 4f41
00000050: 3095 0341 7635 7d41 44f6 7d40 66f2 0c41
00000060: a3c5 3c41 4225 1d42 1e3e d540 0bd9 ec40
00000070: a423 9441 a063 4542 6756 f940 fd85 8f41
00000080: f72a a641 463e 8441 f4ed 8442 73cb 3241
00000090: 17cd 8341 6408 e641 04dd b941 d30c 5a41
000000a0: cc73 3742 994e 2142 125a bb42 51b8 1541
000000b0: 3c70 1041 849f 4641 076a 8641 f658 ef41
000000c0: 1839 c141 c0ef 1541 2127 a140 0755 4741
000000d0: 6e1a e440 6289 6f40 2c83 6441 0dcb 8a41
000000e0: b707 4742 3405 2c41 8740 2541 5e34 3841
000000f0: 5411 7441 1914 4741 af1e 1942 e1ca 3341
9.306483 27.480717 10.980657 10.6499195 21.665607 10.582057 56.93146 8.370954
15.007719 16.268375 7.598521 6.773141 10.665989 9.61606 9.026947 6.725768
10.62155 13.509377 18.488123 12.974372 8.223923 15.825552 3.9681559 8.809179
11.798251 39.286385 6.6638327 7.4014945 18.517403 49.34729 7.791797 17.940424
20.770979 16.530407 66.46475 11.17467 16.475142 28.754097 23.232918 13.628131
45.863083 40.326756 93.67592 9.357499 9.027401 12.413944 16.801771 29.918438
24.152878 9.371033 5.0360265 12.458259 7.1282263 3.7427602 14.282024 17.349146
49.757534 10.75127 10.328254 11.512785 15.2542305 12.442407 38.279964 11.237031

module.backbone.conv1.weight f4 [64, 3, 7, 7]
00000000: 27d3 323e 8e8e 873e 5768 b03e da49 a63e
00000010: 2437 5f3e c436 5c3e f892 9e3e 23ab 853e
00000020: e5a2 3d3e 0b57 033e 35ae 063e e8f6 af3e
00000030: a997 4c3e 7bd4 943e 4e49 5d3e 27fb 8f3e
00000040: c03c 903e 6fd4 f63d 7d50 2e3e 4255 a03d
00000050: 5c3a 493e e3c6 2e3e 56e3 193e b62a 203e
00000060: b311 053e 85be debb ba4e 6abd f97b fcbc
00000070: cfb7 563d 3d89 873d 4dae 323e a2a0 53bb
00000080: 0cb5 53be 6925 a9bd 5fe4 28be 9753 973e
00000090: b91b 7b3e ab25 9e3e 3fda 8e3e 266f 353e
000000a0: 708a de37 552d 963d b908 d83d 2e34 263e
000000b0: 3783 46bd 32d0 4b3d e6ac c83d 00c1 58bd
000000c0: e02b 4dbd a6e4 24bc b740 003e ac95 b13d
000000d0: 6808 923d e08b 6f3d b15c 673d d89c 4b3e
000000e0: 13fc d4bd e4b8 36bd 1e15 0f3c d0c9 34bd
000000f0: dcb8 f03d 352e 5cbd f7e7 a13d dcae 3bbd
00000100: cb38 473d a1bf 483d 0fc9 db3c f82a 85bd
00000110: bc12 14be 0b33 993c 397a c43c 5715 00bd
00000120: 62df 0abd 65ff ddbd e5b0 4cbe a422 1bbe
00000130: 2792 59be b1d3 36bd 00e8 43bd 5efb 39bd
00000140: 11d5 a7bd 5a07 a7be ebe2 70be 3d16 39be
00000150: 7198 af3d ae0c 21bd f9b3 ca3d ddfd 453e
00000160: 0002 b93d a8a5 d6bc 6d95 09be 4b80 32be
00000170: cb29 2b3c 30ad 75bd 3760 de3b 7ad7 813d
00000180: c024 d4bc e57a a9bd cdc3 c73c 0d61 103d
00000190: 29c1 3d39 ada0 3fbd 5ddb 07bd 2b51 4abc
000001a0: 901c 703d f763 ad3b 16b9 10be b6ba 38be
000001b0: 31c6 2bbe d13c 013c 5e88 9c3c 81e4 8e3c
000001c0: 30a4 b23d 1357 b63d cd55 d1bd c064 f2bb
000001d0: 4ef6 ff3c 0469 ee3c 11a2 ef3d 4113 633d
000001e0: adb6 963b 2a5b c63d 5e77 ef3d 7164 dd3c
000001f0: 1bfa 323d 592c 22bd 4b67 3a3d 0460 053e
00000200: 430f c33d e391 1d3d c4d8 d4bd 2b4d d9bb
00000210: 1c72 04be cab7 a43d 29f3 f83d 09d8 483e
00000220: 95cf ca3d af35 b43d 9e8c 4c3d e0db 58bd
00000230: a28d 2b3d db81 f93d 0e1d 9bbd bf45 5f3d
00000240: e282 bc3a cfcd c9bd 233b 2dbd bb2e 283b
00000250: 36ae 00bb 509a 3e3d 6166 3dbc 0c78 2b3c
00000260: c8b4 1a3e a24b 733c a1ed cc3d 2314 f53d
00000270: d473 4f3d 49bf 703c b595 ba3c a730 e9bc
00000280: 202f 81bd 6260 4cbc cd41 3fbd 6b5c 01bd
00000290: 7556 4e3c c759 e43c d33a aabc 790b 59bd
000002a0: 0cfa ddbd 0556 b7bd 9811 ac3d a8b3 ce3d
000002b0: 8110 3a3d 4fee 113d 92c0 eb3c f42e 583e
000002c0: 344c 593e 65bd 303e 6cbe 343e b7b3 2e3d
000002d0: 7efd aa3a a8e7 6c3d 6223 e13d da60 c03d
000002e0: dc6a 233e e663 803e 7d20 8a3e 8835 b83e
000002f0: 57e6 c93e 4ecc 973e cf29 ec3d f346 1d3e
00000300: 3e8d 493e eec0 783e e494 933e 39d8 b93e
00000310: 6f1c e6bd e247 fb3c 2e0f 52bd 169c df39
00000320: d98b 03bd e16c 463d 2a70 f3bc 5e25 603d
00000330: d5ca b73d 5615 893d a341 53bd a4d2 8ebd
00000340: 26f4 80bd 92f4 4ebe c5ce 59be 4c3c bcbd
00000350: d432 3bbe 93d8 98bd 335a 08be 215f d7bd
00000360: d22d 9cbc 0eec 7abe 0061 2bbe dae1 87bd
00000370: 4082 cf3b cb48 473d 8d2f 02be d170 8fbd
00000380: 4df9 f1bb 3978 c73d 7b37 5b3d 02e7 a13d
00000390: e42a 2dbd 4dba dcbd ea18 5b3b 433d c4bc
000003a0: 7885 07bd e319 e9b9 6be6 59bc 7920 623e
000003b0: b345 4a3e 2d5d b03e 7a17 1c3d 53f3 133e
000003c0: fc44 a73d 1b62 c83b 0bdb 1d3e 1eff 043e
000003d0: f61a 863e 9ce6 b13d 1b46 88bb f25c 493c
000003e0: 794e 68bd 61d7 893d c71e 4cbc 6a46 d03b
000003f0: ce88 173e d53d fd3d 8dfa 1e3c 2c23 0e3d
0.1746336 0.26475948 0.34454605 0.3247822 0.21798378 0.21505266 0.30971503 0.2610713
0.1851917 0.12826173 0.13152392 0.34368062 0.19979729 0.2906836 0.21609995 0.28121302
0.2817135 0.12052237 0.17022891 0.07828762 0.19651169 0.17068057 0.15028128 0.15641293
0.12995033 -0.006797614 -0.057203986 -0.030820834 0.052421387 0.06617973 0.17449303 -0.003229179
-0.20674533 -0.082590885 -0.16493367 0.2955596 0.24522294 0.30888113 0.27900884 0.17718181
2.6528927e-05 0.07332865 0.10548539 0.16230842 -0.04846498 0.049759097 0.09798603 -0.052918434
-0.05009067 -0.01006428 0.12524687 0.08671126 0.071305096 0.058483005 0.05648488 0.1988405
-0.10399642 -0.04460992 0.008733062 -0.044137776 0.11754009 -0.053755004 0.07905572 -0.045821056
0.048638146 0.049010877 0.02682927 -0.06502336 -0.14460272 0.018701097 0.023984062 -0.03127035
-0.03390444 -0.10839728 -0.19989355 -0.15149933 -0.21247159 -0.04463548 -0.047828674 -0.045405738
-0.08194936 -0.32622796 -0.23524062 -0.1807489 0.08573998 -0.039318733 0.09897608 0.19335122
0.090335846 -0.026202038 -0.13435908 -0.17431752 0.010446976 -0.059979618 0.006786372 0.06339927
-0.02589643 -0.082753934 0.024385357 0.035248805 0.00018096402 -0.04678409 -0.033168186 -0.0123484535
0.05862099 0.0052914578 -0.14133105 -0.18039975 -0.16774823 0.007888035 0.019107994 0.017442944
0.087227225 0.08903327 -0.10221443 -0.0073972642 0.031245377 0.02910281 0.117008336 0.055438284
0.0045994134 0.09685357 0.11692689 0.027025433 0.04369555 -0.039593074 0.045508664 0.13024908
0.09524395 0.038469207 -0.10392907 -0.0066315136 -0.12934154 0.080428675 0.12155754 0.19613661
0.099028744 0.08799302 0.04993879 -0.052944064 0.04188312 0.12182971 -0.07573901 0.054509874
0.0014382268 -0.09853708 -0.042292725 0.002566262 -0.0019635088 0.046533883 -0.011560054 0.010465633
0.15108025 0.014849575 0.100062616 0.119667314 0.05064757 0.014694043 0.022776464 -0.028465582
-0.063078165 -0.012474151 -0.046693612 -0.031582277 0.012593855 0.02787484 -0.020780003 -0.052989457
-0.10838708 -0.08951954 0.08401793 0.100928605 0.045425896 0.03562766 0.028778348 0.21111661
0.21220475 0.17259748 0.17650765 0.04265186 0.0013045517 0.057838112 0.10993077 0.09393473
0.15958732 0.25076216 0.26977912 0.3597834 0.39433548 0.2964806 0.11531412 0.15359096
0.19682786 0.24292347 0.28824532 0.36297777 -0.11235892 0.030673925 -0.051284008 0.00042650168
-0.03211579 0.04844368 -0.02971657 0.054723136 0.08974234 0.06693523 -0.051576268 -0.0697377
-0.062965676 -0.20210484 -0.21270283 -0.09191188 -0.18281108 -0.07463183 -0.13315658 -0.10516191
-0.019064818 -0.2450411 -0.16736221 -0.06634875 0.0063326657 0.048653405 -0.12713452 -0.0700394
-0.0073844553 0.097397275 0.053519707 0.07905389 -0.04227723 -0.107777216 0.0033431598 -0.023954993
-0.03308627 -0.0004446051 -0.013299565 0.220827 0.1975315 0.34446087 0.038108326 0.1444829
0.081674546 0.0061152107 0.1541559 0.12987944 0.26192445 0.086865634 -0.004158748 0.012290226
-0.056715462 0.067305334 -0.01245851 0.0063560503 0.1479828 0.12365309 0.009703291 0.03470151

module.backbone.bn1.weight f4 [64]
00000000: 65b8 3b3f 933e 433f dfc7 443f 9dfb 8b3f
00000010: 44d3 5c3f 1370 4b3f 5ea1 593f 5adc 473f
00000020: d5a0 803f 64cc 8a3f 4394 623f 953a 483f
00000030: ab5e 983f 0b62 603f b632 503f be93 7e3f
00000040: 67f9 8f3f 91ae 493f 57b2 423f 0a93 7a3f
00000050: 6fd1 8d3f 9a8f 6f3f fce8 7d3f 8bb0 4f3f
00000060: 9cb9 823f 7f69 6d3f 06a1 633f f152 823f
00000070: e95a 463f 39ea 673f 56ed 6a3f 685f 3a3f
00000080: 4bb8 5e3f dc7f 443f a3bb 853f 49c8 553f
00000090: 6d95 503f 3f46 423f ec62 4b3f 52d7 883f
000000a0: bf39 803f 34ad 1f3f bd00 7f3f f4d7 913f
000000b0: b131 463f 9b0d 653f 4ff7 733f 160c 8c3f
000000c0: 0d71 663f ec8d 4d3f 5dda 533f 37c4 553f
000000d0: 4a0a 5c3f 355f 473f 0e89 883f 023b 893f
000000e0: 4296 163f e45d 113f be17 603f ef99 4d3f
000000f0: d775 573f f03a 8d3f 671d 523f d8c1 403f
0.7332824 0.76267356 0.7686748 1.0936161 0.86259866 0.79467887 0.8501185 0.78070605
1.0049082 1.0843625 0.8850748 0.7821439 1.190389 0.876496 0.8132738 0.99444187
1.1247987 0.7878199 0.76053375 0.97880614 1.1079539 0.93578494 0.9918363 0.8112876
1.0212893 0.927391 0.8891758 1.0181562 0.7748247 0.9059177 0.91768396 0.7280183
0.8699996 0.767576 1.0447887 0.83508736 0.81478006 0.7588844 0.7944782 1.069071
1.0017623 0.6237366 0.996105 1.1394029 0.77419573 0.89473885 0.9529924 1.0941188
0.9001625 0.8029468 0.8275507 0.83502525 0.859532 0.7787965 1.0666826 1.0721133
0.58823025 0.5678389 0.8753623 0.8031301 0.84164184 1.1033611 0.82076114 0.7529578

module.backbone.bn1.bias f4 [64]
00000000: 65a8 89be d8be b3bb 3b86 06be 3805 da3e
00000010: 5a96 d3bd 81ef 95bd 7b1c ab3d d27c 273d
00000020: 29b3 31be 6668 71bb 4e96 d3bd 1223 d1bd
00000030: 4ea8 213e c1da 0abe b1ea 35bd ff87 af3e
00000040: 2370 843c 0052 50bd ea51 d6bd fbb9 ee3c
00000050: dd47 49be 5a80 623e 8927 8abd 8994 f1bd
00000060: 95aa 7e3c d736 4abe 94ed acbd 904b cb3e
00000070: 9241 57bd 1d29 5fbe 8239 26be e7d5 83be
00000080: a34f ccbd f27d aebe 63f3 a8bc 011a 2ebe
00000090: 1bfb 7ebe 64dc c43c d25f 95bd f204 653e
000000a0: 63c1 0b3e b41a b1bd 832d 50bd 9895 a73e
000000b0: 496a 86be fe4e 2bbd a357 4b3e 1ae2 8a3e
000000c0: fed2 9bbe 95a9 d7bd 3edc 553e 5c55 cb3c
000000d0: 0769 a9bd 8f74 3cbe cb78 df3c 4bec da3c
000000e0: d9d2 87be c00e 9dbe 5f67 3fbe 6583 ad3d
000000f0: 7d51 88bd 5871 7cbd d0fb 20be 4940 86be
-0.26886287 -0.005485397 -0.13137142 0.42582107 -0.10331412 -0.07321072 0.083550416 0.040890522
-0.173535 -0.0036835908 -0.10331403 -0.10211767 0.1578686 -0.1356001 -0.044413272 0.34283444
0.016166752 -0.05085945 -0.104648426 0.029141417 -0.1965632 0.22119275 -0.06745822 -0.11795909
0.0155436 -0.19747482 -0.08443752 0.39706087 -0.052552767 -0.21793027 -0.16232875 -0.25749132
-0.09976127 -0.34080464 -0.020623868 -0.17002107 -0.24900477 0.024030872 -0.07293667 0.22365168
0.1364799 -0.08647671 -0.050824653 0.32731318 -0.26252964 -0.04182338 0.1985765 0.27125627
-0.30434412 -0.10530392 0.20884797 0.024820976 -0.082719855 -0.18403839 0.027279278 0.026724001
-0.26528051 -0.30675316 -0.18691777 0.08472327 -0.06656168 -0.06163153 -0.15721059 -0.2622092

module.backbone.bn1.running_mean f4 [64]
00000000: 108a 0a44 6768 1644 6a5e 42c3 62ad 7942
00000010: e4f2 1944 6688 eb43 2001 8643 2195 d842
00000020: 8d1c 3043 ded8 1e43 2db9 b1c3 5dd0 b643
00000030: f53c 4bc3 4756 bdc3 2729 04c3 b409 92c3
00000040: faa6 a4c3 319a 72c3 595e 0f44 1bea 62c3
00000050: 0b8d e4c3 1536 1144 f589 b1c3 d6f4 8443
00000060: a9d0 9bc3 8fce fc43 e4de c143 5909 0f42
00000070: fbbe 2843 68dd 4d43 5850 0cc1 387d 7843
00000080: c948 bf43 d0a6 8743 f118 c0c3 a946 91c3
00000090: b6bb a343 7787 16c3 87c6 2442 fe7b 0cc3
000000a0: 79ea acc3 69d3 8043 3da2 dbc3 ec9f 2dc3
000000b0: 5dc2 cc43 58b0 98c3 50d7 69c2 31af 1543
000000c0: d32d a143 2c33 4f44 8c47 d141 28db d643
000000d0: a06d 0a44 2b5f 4ac3 4986 9dc3 6227 59c3
000000e0: ea0b 83c3 c1bd 8ac3 9fb4 8943 b7cc a9c2
000000f0: a8ab 37c3 d0c9 8cc3 fa2b af43 19ee 00c4
554.1572 601.6313 -194.3688 62.41932 615.79517 471.0656 268.0088 108.29127
176.11153 158.84714 -355.4467 365.62784 -203.23811 -378.67404 -132.16075 -292.0758
-329.3045 -242.60231 573.4742 -226.91447 -457.1019 580.84503 -355.0778 265.91278
-311.63016 505.61374 387.74133 35.75913 168.74602 205.86487 -8.769615 248.48914
382.56863 271.30322 -384.19485 -290.55203 327.4665 -150.52916 41.193874 -140.48434
-345.83182 257.65164 -439.2675 -173.6247 409.51846 -305.3777 -58.460266 149.68434
322.358 828.79956 26.159935 429.71216 553.7129 -202.37175 -315.0491 -217.15384
-262.09308 -277.48245 275.4111 -84.89983 -183.67053 -281.57666 350.34357 -515.7203

module.backbone.bn1.running_var f4 [64]
00000000: b5f2 4248 508a 6d48 3418 0b47 760c 1046
00000010: 7cac 6548 09da 0f48 9bfc 7d47 a538 4c47
00000020: d1a4 9b46 810f 7446 a9df b047 31bd a647
00000030: b156 4d47 b2a3 b147 0c26 1e47 9d2a 5f47
00000040: 18c7 9f47 9c40 1a47 60af 5f48 6577 1747
00000050: ddba 1148 c20a 5948 2ddf 9f47 b755 2247
00000060: 4fd4 6547 9a04 1f48 8bde ea47 c681 a646
00000070: 53b6 d046 1334 5d47 26d3 5146 1fd5 4247
00000080: d8f5 b947 299f 7347 d167 aa47 48b3 6247
00000090: 610c 8347 64cd f046 fd90 ee45 35df 1047
000000a0: 5e5e b347 cf22 3047 17c0 dc47 27df 1247
000000b0: a73f cd47 cf52 8c47 06d2 df45 bc42 7d47
000000c0: 075e a947 f5f7 d648 2e66 0446 3b98 e347
000000d0: 9c62 4448 6c61 d846 88af a047 1fcc 3047
000000e0: 3537 2e47 1725 4447 6d7f 3847 27d8 8a46
000000f0: 4310 ca46 6ff0 4647 4f84 a647 bafd 2c48
199626.83 243241.25 35608.203 9219.115 235185.94 147304.14 65020.605 52280.645
19922.408 15619.876 90559.32 85370.38 52566.69 90951.39 40486.047 57130.613
81806.19 39488.61 229053.5 38775.395 149227.45 222251.03 81854.35 41557.715
58836.31 162834.4 120253.086 21312.887 26715.162 56628.074 13428.787 49877.12
95211.69 62367.16 87247.63 58035.28 67096.76 30822.695 7634.1235 37087.207
91836.734 45090.81 113024.18 37599.152 105087.305 71845.62 7162.253 64834.734
86716.055 440255.66 8473.545 116528.46 201098.44 27696.71 82271.06 45260.12
44599.207 50213.09 47231.426 17772.076 25864.13 50928.434 85256.62 177142.9

module.backbone.conv2.weight f4 [128, 64, 3, 3]
00000000: 40d6 373b b065 913c c0c8 dfbb b263 d53c
00000010: 5033 1dbc cb7a 263d e036 393c 7a56 c93c
00000020: 49b7 1e3d c66a e83c 3713 16bd a037 e23b
00000030: 6f41 20bd 5099 0fbc 431d a7bc d8fd 863c
00000040: 70a2 73bc 5eac d8bc 035a 023d 80fc c9bb
00000050: 9e80 ad3c 31e6 1b3d 2aac ad3c c826 93bb
00000060: 1022 66bc b3a1 efbc 0ef7 09bd 60ed a1bb
00000070: 1046 513c 02ca f63c e805 00bd e0ea debc
00000080: 5843 05bd 0897 bdbc 7090 87bc 9190 043d
00000090: ca6b 29bd c029 c7bb cb62 f5bc ab1a 9cbc
000000a0: 1370 01bd 5f60 1d3d 0089 18b9 8ed0 b63c
000000b0: 0039 b9bb 003d 8d3a d8f7 08bd 4653 a43c
000000c0: b6d7 dabc e27d 8d3c 88d3 a03b 3669 0cbd
000000d0: d13a 283d 0a90 dd3c 4658 f73c 60fa a6bb
000000e0: 254f 273d 972f 273d e04d 4f3c a08a b23b
000000f0: d23c d23c 8059 4b3c b1cf 293d e0f3 8f3b
00000100: 39b7 143d 80ab a8b9 e413 14bd 4b45 0cbd
00000110: 2b78 b4bc 7c82 4abc f63b 43bc 400c 6abb
00000120: cae8 c23c ec82 51bc d68c 8f3c 9645 cabc
00000130: a40c 11bd 38f9 8ebb 3a2c ef3c 5890 c5bb
00000140: 165d e53c a04f a63a 53ec 89bc 6afc 863c
00000150: fbd8 f5bc 4058 89bc 5a0b c93c dab3 c63c
00000160: 5838 97bc 7049 95bc ba9e 953c 9b7b 173d
00000170: 9b80 babc 0ca2 4ebc 09e1 1a3d 682e 94bb
00000180: b2f6 873c 802c b23a 207d 80bc d0b5 3a3b
00000190: 20d9 953a c8cf 873b 347b 443c 48e1 efbc
000001a0: 1450 233c ff94 263d 6444 483c 2893 1fbd
000001b0: 81ad 093d 0039 443a 5c66 17bc d809 d0bc
000001c0: 30be 033c 1324 87bc c6f7 91bc e0b8 943c
000001d0: 4cfe 723c 6654 d63c f640 9abc d307 ebbc
000001e0: 7e29 db3c cba2 b3bc e825 14bd 332d d6bc
000001f0: d213 c73c e723 233d 177b 103d e0c4 a9ba
00000200: ae1f ef3c 92f8 15bd b0e1 59bb 7820 903c
00000210: fe36 a0bc e073 e0bb 9ee1 b6bc 403a 823c
00000220: 4448 1cbd 00b7 93bc 8687 24bd 3209 ac3c
00000230: d2a0 d23c a374 d3bc edc9 0f3d 3340 223d
00000240: 9e2f b6bc 6798 133d ed7a 283d 1422 0cbd
00000250: fc85 133c e88e aabc 1814 a6bb 2d05 123d
00000260: 5338 133d 0072 d0bb c62b 47bc a036 c1ba
00000270: f6a7 1fbd 324e ca3c 56bb e9bc 0c9f 6ebc
00000280: f898 a2bc 8863 85bb acaf 76bc 99fd 103d
00000290: 2e8d 8ebc 68b8 a13c 98e0 c4bc 41bf 093d
000002a0: 448e 713c 5a08 c63c f07c 30bb 12b3 f93c
000002b0: e064 9b3b d97e 293d 1621 adbc 8c5f 74bc
000002c0: f759 263d 74ba 0ebc 80b1 b9ba 6640 b93c
000002d0: f216 b83c a8da b43b 3346 ffbc 0203 e93c
000002e0: 40c0 103b 24ea 07bc e6a0 ccbc 8c30 25bd
000002f0: 04a5 683c 1032 21bd cbd3 85bc 5072 3dbb
00000300: 20b2 f03b 7c9c 643c 324f c33c c0d3 253c
00000310: 1a34 1ebd a23f bb3c fba1 1fbd d59d 113d
00000320: 248f 01bc 6823 923c a0a7 afbb 8c08 14bd
00000330: c8ea b2bb b2f7 d73c c0fa 09bd 240d 6a3c
00000340: d802 a1bb 7ccc 013c 93b0 9fbc 60b8 9abb
00000350: 73a7 8bbc 10bc 0dbd b6ab 78bc 200d d83b
00000360: 5b04 293d 9382 d9bc ecdb 4abc 80c5 40bc
00000370: 0a29 00bd 0c74 293c e0ce c4bc 5c01 74bc
00000380: 88d0 9ebb 5806 a3bb 0a86 e53c ed26 033d
00000390: 40db 453b 802a e939 9ad2 db3c f58a 0a3d
000003a0: 98ad 04bd cbc7 0a3d 8354 e3bc d7d4 0abd
000003b0: 2343 d4bc 1ac6 f33c dc50 58bc 61cb 193d
000003c0: 676a 163d 4039 7b3a 7015 5ebc 188c a33c
000003d0: 6c5b 48bc a532 293d 3eea b2bc bc4f 25bd
000003e0: d486 4d3c feeb ae3c 98c2 dbbc 007c 083b
000003f0: 3003 18bd 8c2d 3a3c 8a67 bd3c 62bc 22bd
0.0028051287 0.017748684 -0.006829351 0.026048515 -0.009594753 0.04064445 0.011304587 0.024577368
0.038749013 0.028371226 -0.03663942 0.0069036037 -0.039124902 -0.00876458 -0.020399695 0.016478464
-0.014870271 -0.026449379 0.031824123 -0.0061641335 0.021179494 0.038061325 0.021200258 -0.004490707
-0.014046207 -0.029251909 -0.033682875 -0.0049416274 0.012773052 0.030125622 -0.031255633 -0.027211607
-0.032534927 -0.023143306 -0.016548365 0.03236443 -0.04136256 -0.006077975 -0.029954335 -0.019055685
-0.031601023 0.038421985 -0.00014546886 0.022316243 -0.005652547 0.0010775626 -0.033439487 0.02005924
-0.026714187 0.01727194 0.004908029 -0.034280024 0.041071717 0.027046222 0.03019346 -0.005095765
0.040846962 0.04081687 0.012652844 0.0054486543 0.025663767 0.012411475 0.041457836 0.004393086
0.036307547 -0.00032171234 -0.03615178 -0.03424577 -0.022029957 -0.012360211 -0.011916151 -0.0035712868
0.023792643 -0.012787562 0.01752321 -0.024691384 -0.035412446 -0.0043632053 0.029195894 -0.00602917
0.027998488 0.0012688525 -0.016836321 0.016477782 -0.03001069 -0.016765714 0.024541546 0.024255682
-0.018459484 -0.018223494 0.018264163 0.036983114 -0.022766402 -0.012611877 0.037812266 -0.0045221336
0.016597126 0.0013593584 -0.015684664 0.0028489716 0.0011432506 0.0041446425 0.011992265 -0.029282227
0.009967823 0.040669437 0.012223337 -0.0389587 0.03361273 0.00074853003 -0.009240713 -0.025395319
0.00804095 -0.016496694 -0.017818343 0.018154562 0.014831137 0.026163291 -0.018829804 -0.028690254
0.026753183 -0.021928212 -0.036168963 -0.0261446 0.024301443 0.03982916 0.035273638 -0.001295235
0.02918991 -0.03661401 -0.0033246092 0.017593607 -0.019557472 -0.006849751 -0.02232438 0.015896916
-0.038154855 -0.018031597 -0.040168308 0.021000478 0.02571145 -0.025812453 0.03510468 0.039612006
-0.022239503 0.036034014 0.041132856 -0.034212187 0.009004112 -0.020820096 -0.0050683133 0.035649467
0.035942387 -0.006361246 -0.0121564325 -0.0014741011 -0.03897854 0.02469549 -0.028531712 -0.014564287
-0.019848332 -0.004070703 -0.015056532 0.0353981 -0.017401304 0.019741252 -0.024032876 0.03362966
0.014743391 0.024173904 -0.0026929937 0.030480895 0.00474225 0.041380737 -0.02113394 -0.014915358
0.04061314 -0.008711446 -0.0014167279 0.022613715 0.022471879 0.00551923 -0.031161403 0.028443817
0.0022087246 -0.00829557 -0.024979066 -0.0403295 0.014199499 -0.039354384 -0.016336342 -0.0028907247
0.007345453 0.013953324 0.023841474 0.010121286 -0.038623907 0.02285749 -0.038972836 0.03555091
-0.007907663 0.017839149 -0.0053605586 -0.036140963 -0.005460117 0.026363228 -0.0336864 0.0142853595
-0.004913669 0.007922288 -0.019493377 -0.0047216862 -0.01704762 -0.03460318 -0.015177658 0.0065933615
0.04126392 -0.02655152 -0.012381535 -0.011765838 -0.031289138 0.010342609 -0.024024427 -0.014892902
-0.004846636 -0.0049751215 0.028018016 0.032019544 0.0030190498 0.00044472888 0.026833821 0.033823926
-0.032392114 0.033881944 -0.02775026 -0.033894386 -0.02591092 0.029757548 -0.013202872 0.037547473
0.036722567 0.0009583421 -0.013554916 0.019964263 -0.012228828 0.041308064 -0.021840211 -0.040359244
0.012544353 0.021352764 -0.026826188 0.0020825863 -0.037112415 0.011363398 0.02312066 -0.039730437
